# Ultralytics 🚀 AGPL-3.0 License - https://ultralytics.com/license

# YOLO11l + A3-FPN object detection model (large)
# A3-FPN: Asymptotic Content-Aware Pyramid Attention Network

nc: 80
scales:
  l: [1.00, 1.00, 512]

backbone:
  - [-1, 1, Conv, [64, 3, 2]] # 0-P1/2
  - [-1, 1, Conv, [128, 3, 2]] # 1-P2/4
  - [-1, 2, C3k2, [256, False, 0.25]]
  - [-1, 1, Conv, [256, 3, 2]] # 3-P3/8
  - [-1, 2, C3k2, [512, False, 0.25]]
  - [-1, 1, Conv, [512, 3, 2]] # 5-P4/16
  - [-1, 2, C3k2, [512, True]]
  - [-1, 1, Conv, [1024, 3, 2]] # 7-P5/32
  - [-1, 2, C3k2, [1024, True]]
  - [-1, 1, SPPF, [1024, 5]] # 9
  - [-1, 2, C2PSA, [1024]] # 10

head:
  - [[4, 6, 10], 1, A3FPN, [256, 3]] # 11
  - [[11, 12, 13], 1, Detect, [nc]] # 12
